app/src/main/assets/emotion_new.tflite (tflite, 245924 bytes, 47 tensors)

arith.constant f4 [128]
0	0x3e126d60	0.14299536
1	0x3f263818	0.6492934
2	0xbb9a4100	-0.0047074556
3	0xbe508fb8	-0.20367324
4	0xbf55c55e	-0.83504283
5	0x3e43f45c	0.19136184
6	0xbf29213b	-0.6606633
7	0xbfc3fd4b	-1.5311674
8	0x3f05f805	0.5233157
9	0x3f3e40da	0.74317706
10	0xbfb6e61e	-1.4288976
11	0xbf23b9b3	-0.6395523
12	0xbf014d44	-0.50508523
13	0xbff9c1a7	-1.9512223
14	0xbfa63c9a	-1.2987244
15	0xbf0ef37a	-0.55840266
16	0xbec50e04	-0.38487256
17	0x3e60de30	0.21959758
18	0xbfc28089	-1.5195476
19	0xbf52e1b6	-0.8237566
20	0xbf8ace50	-1.0844212
21	0xbec32e38	-0.381212
22	0xbee77caf	-0.45212314
23	0xbe5121ea	-0.20423093
24	0xbef19e5e	-0.47191137
25	0xbfb64850	-1.4240818
26	0xbf904868	-1.1272097
27	0xbf572da0	-0.84053993
28	0xbf676c96	-0.90400064
29	0x3e0a95a0	0.1353364
30	0xbf81f560	-1.0153008
31	0x3f7e0341	0.99223715
32	0x3e21f094	0.1581443
33	0xbed3196f	-0.41230342
34	0x3d5c6078	0.053802937
35	0x3da26898	0.07930106
36	0x3e16260c	0.14662951
37	0xbfea05fd	-1.8283077
38	0xbfaa9f57	-1.3329877
39	0xbe9d7174	-0.3075062
40	0x3f889f2d	1.0673577
41	0xbe947451	-0.28994992
42	0xbef89dde	-0.48557943
43	0xbfac860c	-1.3478408
44	0xc01a8b3e	-2.4147487
45	0xbee25a3f	-0.44209477
46	0xbf6f6772	-0.9351722
47	0xbfe9e2f1	-1.8272382
48	0xbf632cf1	-0.8874045
49	0xbed4bc2d	-0.41549817
50	0x3d56d150	0.05244571
51	0xbfa31b6a	-1.2742741
52	0xbdb78de8	-0.08962613
53	0xbe8a3f02	-0.27001196
54	0xbf8414ba	-1.0318825
55	0x3f0bc03c	0.545902
56	0x3decccd0	0.115625024
57	0x4013236f	2.2990377
58	0xbfa16b51	-1.2610875
59	0xbe824bab	-0.25448355
60	0xc013134b	-2.2980525
61	0xbf6ffdb5	-0.937465
62	0xbe45198e	-0.1924803
63	0xbf53bb44	-0.8270762
64	0x3f1e6baf	0.6188306
65	0x3dc612b0	0.09671533
66	0xbf13a48b	-0.5767295
67	0xbe2c8975	-0.1684931
68	0xbc3125e0	-0.010812253
69	0xbf7e1619	-0.9925247
70	0xbe33b2c8	-0.17548668
71	0xbf9a1c77	-1.2039937
72	0xbea3546e	-0.31900352
73	0xbf0e3137	-0.55543846
74	0xbf677c24	-0.904238
75	0xbf6139f8	-0.8797908
76	0xc002c124	-2.0430384
77	0xbf6595ea	-0.89681876
78	0x3e3f3022	0.18670705
79	0xbf23208d	-0.63721544
80	0xbf5bd0c5	-0.8586543
81	0xbf5b5671	-0.85678774
82	0xbe33cf6c	-0.17559594
83	0xbe831dd3	-0.25608692
84	0x3f223d22	0.6337453
85	0xbf0a76a4	-0.5408728
86	0xbe96c641	-0.2944813
87	0x3db67df0	0.089107394
88	0xbf40411a	-0.7509934
89	0xbf790400	-0.9727173
90	0xbefe7c10	-0.49704027
91	0xbf8f72f6	-1.1206958
92	0xbf6592d0	-0.89677143
93	0xbf707f05	-0.93943816
94	0xbedfc5d8	-0.4370563
95	0xbed093e6	-0.40737838
96	0xbfa6f10d	-1.3042313
97	0xbf49ea31	-0.7887297
98	0xbff7d3e8	-1.9361544
99	0x3f00afa4	0.50268006
100	0x3e7f81f6	0.2495192
101	0xbe948df1	-0.29014543
102	0xbfc520bf	-1.5400618
103	0x3eb31e71	0.34984162
104	0xbf109c02	-0.5648805
105	0xbfd8281a	-1.6887238
106	0xbf9497d9	-1.160884
107	0xbf0536ee	-0.5203694
108	0xbfaee04a	-1.3662198
109	0xbd6688c0	-0.05628276
110	0xbf382caa	-0.7194315
111	0x3f93b43e	1.153938
112	0xbe1c7e60	-0.15282583
113	0xbfa1baf1	-1.2635175
114	0x3e49737e	0.19672963
115	0x3e858cdc	0.2608403
116	0x3d45ea00	0.048318863
117	0xbf305a20	-0.6888752
118	0xbd722310	-0.05911547
119	0xbf89a9d8	-1.0754957
120	0xbfaf1634	-1.3678651
121	0xbf840afc	-1.0315852
122	0xbf8ef14c	-1.1167388
123	0xbf3b060d	-0.7305611
124	0xbf073d45	-0.52827865
125	0x3e58a6a2	0.21157315
126	0x3ea77a04	0.32710278
127	0xbfb4cc82	-1.4124911

arith.constant1 f4 [64]
0	0xbe915464	-0.28384697
1	0xbe5351e2	-0.20636705
2	0x3f6f181a	0.9339615
3	0x3f9e60a7	1.2373246
4	0xbe749e1b	-0.23888437
5	0xbf675724	-0.9036734
6	0x3f2b5e4c	0.6694076
7	0xbdd3e0ef	-0.10345637
8	0xbf108b9f	-0.56463045
9	0x3c9524a0	0.01820594
10	0x3c5ea100	0.01358819
11	0x3f42d010	0.7609873
12	0x3f4adb52	0.79240906
13	0x3f1400d1	0.57813746
14	0x3b824780	0.0039758086
15	0xbefab30b	-0.48964724
16	0x3ec337d6	0.38128537
17	0xbee4dfc3	-0.44701967
18	0xbf38f0ae	-0.7224225
19	0xbdce666f	-0.100781314
20	0xbe1a3f27	-0.15063153
21	0xbedf7ace	-0.4364838
22	0xbf864d74	-1.0492387
23	0xbe805b4e	-0.2506966
24	0x3d6c9c32	0.057766147
25	0x3ecb79dc	0.3974141
26	0xbf0ef167	-0.558371
27	0xbe8acd67	-0.27109835
28	0x3e527845	0.20553692
29	0xbf726632	-0.9468719
30	0xbc8beb30	-0.01707992
31	0x3f08c6f9	0.5342861
32	0xbef7c956	-0.48395795
33	0xbdb32e3c	-0.08749053
34	0xbf40f3a7	-0.75371784
35	0x3bcb35e0	0.0062014908
36	0x3e8f6f55	0.28014627
37	0xbec9b002	-0.39392096
38	0xbf00ab20	-0.50261116
39	0xbe976f15	-0.29576936
40	0xbe7985b8	-0.24367416
41	0xbe82c568	-0.25541234
42	0x3d840824	0.06446865
43	0xbe45a1e4	-0.19300038
44	0xbe0a1de6	-0.13487968
45	0xbf2b7cfa	-0.66987574
46	0x3f11bcd7	0.5692877
47	0xbf3fe1a4	-0.74953675
48	0x3ecc2a61	0.39876083
49	0xbe1ca3d8	-0.15296876
50	0xbf0b7922	-0.5448171
51	0xbf70d738	-0.940784
52	0xbf1a1f58	-0.60204077
53	0xbf94f9d6	-1.1638744
54	0x3cf78cc4	0.03021849
55	0x3f56a78e	0.8384942
56	0xbedcb2f7	-0.4310529
57	0x3e87dd1e	0.26535887
58	0x3d8c290a	0.06843765
59	0xbc99a5b0	-0.018755764
60	0xbe423b30	-0.1896789
61	0xbd05f568	-0.03270474
62	0xbce31410	-0.027719527
63	0xbe9c155d	-0.3048505

arith.constant2 f4 [32]
0	0xbede7709	-0.43450192
1	0x3e906ccf	0.28208014
2	0x3fa66d5a	1.3002121
3	0x3ed4a911	0.41535237
4	0xbda95fc6	-0.082702205
5	0xbcd679a0	-0.026181042
6	0xbc5aa9b0	-0.013346121
7	0x3f62c5ac	0.88582873
8	0x3f066f52	0.5251361
9	0xbee63ae1	-0.44966796
10	0x3eb3a044	0.3508321
11	0x3f9b7aaa	1.2146809
12	0xbf83b764	-1.0290341
13	0xbf31f50e	-0.6951455
14	0xbec13759	-0.3773754
15	0x3ffdcbdc	1.9827838
16	0x3f3472ab	0.7048747
17	0x3e3c4860	0.18386984
18	0xbf91ccc7	-1.1390618
19	0x3f00eadb	0.5035836
20	0x3fb330f3	1.3999313
21	0xbe8bc65c	-0.27299774
22	0xbf4a19a0	-0.7894535
23	0x3f3219b3	0.69570464
24	0xbf8e5a20	-1.1121254
25	0xbf042a2a	-0.5162684
26	0xbebec764	-0.37261498
27	0x3fc17d2d	1.5116326
28	0xc0047f19	-2.0702574
29	0x3ed10407	0.40823385
30	0xbf5eb835	-0.8699983
31	0x3f94e330	1.1631832

arith.constant3 f4 [16]
0	0x3f560da6	0.83614576
1	0xbed1c0a5	-0.4096729
2	0xbd91a2f6	-0.071111605
3	0x3f5218ba	0.8206898
4	0x3f0b7acc	0.5448425
5	0x3de8172a	0.11332543
6	0x3ec0eaf6	0.3767926
7	0x3f18b5be	0.59652317
8	0xbcee9f65	-0.02912874
9	0x3e87d8be	0.2653255
10	0x3e0175ca	0.12642589
11	0x3ed0c04d	0.40771714
12	0x3ea5ac37	0.32357952
13	0x3edd93fe	0.43276972
14	0x3f6b3e3c	0.9189184
15	0x3e5c7555	0.21529134

arith.constant4 f4 [8]
0	0x3f6a7dc7	0.9159817
1	0x3fc220b4	1.516623
2	0x3e97275f	0.29522225
3	0x3f8ca292	1.0987113
4	0x402c43d6	2.6916404
5	0xbfb2faf0	-1.398283
6	0xbdda7ec0	-0.10668707
7	0x3eb9286b	0.3616365

arith.constant5 f4 [7]
0	0x3d575e38	0.05258009
1	0xbf1a89ef	-0.6036672
2	0x3df88975	0.12135593
3	0xbd383caa	-0.04497973
4	0x3dcddc80	0.10051823
5	0xbe876ac6	-0.2644865
6	0x3c101577	0.00879418

arith.constant6 f4 [128]
0	0x3e81ef6d	0.2537798
1	0x3e8ee4b2	0.27908856
2	0x3efacb03	0.4898301
3	0x3e87eb99	0.26546934
4	0x3e6e7a22	0.23288777
5	0xbe56592e	-0.20932457
6	0xbd181e38	-0.037138194
7	0x3eb23c71	0.34811738
8	0xbe2e1b22	-0.17002538
9	0x3e9ca402	0.30593878
10	0x3e8c818a	0.2744258
11	0x3f00cb3d	0.50310117
12	0x3e210f14	0.15728408
13	0x3e91b63b	0.28459343
14	0x3f221b9d	0.63323385
15	0xbddc78c6	-0.10765223
16	0x3ef232c9	0.4730437
17	0x3e9f9770	0.31170225
18	0x3e3fc9d2	0.18729332
19	0x3e8647d2	0.2622667
20	0x3ead2530	0.33817434
21	0x3e0bd9fe	0.13657376
22	0x3e8306d0	0.25591135
23	0xbe325fea	-0.17419401
24	0xbe0c853a	-0.13722697
25	0x3f59e217	0.8511061
26	0x3f099748	0.5374646
27	0x3edf9557	0.43668625
28	0xbd8403fc	-0.064460725
29	0x3ec9499e	0.39313978
30	0x3f269c1e	0.65081966
31	0x3e6bddce	0.2303383
32	0x3c33a840	0.010965407
33	0x3e4fbbfe	0.20286557
34	0x3ebee0fc	0.37281024
35	0x3e930b0e	0.28719372
36	0x3dae5368	0.08512002
37	0x3e3d98a2	0.18515256
38	0x3e087be4	0.1332851
39	0x3e2fe7f0	0.17178321
40	0x3d968b18	0.07350749
41	0x3d960bc0	0.0732646
42	0x3eca67f5	0.39532438
43	0x3ef798a6	0.4835865
44	0x3ece051b	0.4023827
45	0x3ee46fb9	0.44616488
46	0x3ed94198	0.42432857
47	0x3eca073f	0.39458653
48	0x3d82f494	0.06394306
49	0x3f011541	0.50423056
50	0xbd2c73e8	-0.042102724
51	0x3e59b0b8	0.21258819
52	0xbd39d7cc	-0.045371816
53	0x3e59822a	0.2124106
54	0x3e7a7820	0.24459887
55	0x3efe561e	0.49675077
56	0x3eb10288	0.34572244
57	0x3ebfc904	0.3745805
58	0x3f008c0e	0.50213706
59	0x3ea62747	0.3245184
60	0x3ea887cd	0.32916108
61	0x3f455a80	0.7709122
62	0x3eeceb12	0.46273094
63	0x3f3dccc4	0.7414057
64	0x3eb05842	0.34442335
65	0x3f1540fc	0.58302283
66	0x3ed05416	0.40689152
67	0x3caf5b80	0.021405935
68	0x3e99d63d	0.30046263
69	0x3e53ff34	0.20702821
70	0x3ea57b8e	0.32320827
71	0x3f118f38	0.5685916
72	0x3f05ef5a	0.52318347
73	0xbbb05b40	-0.0053819716
74	0x3ee5c700	0.44878387
75	0xbd54a1e0	-0.05191219
76	0x3f1fc702	0.62413037
77	0x3e902eb6	0.28160638
78	0x3e22aa70	0.15885329
79	0xbdf7a28e	-0.12091552
80	0x3ddfceb8	0.109281
81	0x3ee97af3	0.45601615
82	0x3e9fcfad	0.31213132
83	0x3f37a8e8	0.71742105
84	0x3f0e15ed	0.55502206
85	0x3e5c29c5	0.21500309
86	0x3ef8b54f	0.48575827
87	0x3e6a2de2	0.22869065
88	0x3f2e4582	0.6807481
89	0xbdefdc10	-0.117118955
90	0x3cc54ed0	0.024085432
91	0x3eafae78	0.34312797
92	0x3e3cea14	0.18448669
93	0x3f4b54a8	0.7942605
94	0x3e53742a	0.20649782
95	0x3edfe9a3	0.43732938
96	0xbe39d0c1	-0.1814604
97	0x3df24660	0.11829829
98	0x3ee03c9f	0.4379625
99	0x3e889389	0.2667506
100	0xbdff0670	-0.124524
101	0x3f069552	0.52571595
102	0x3df94518	0.12171382
103	0x3d9676fc	0.07346913
104	0x3f044bde	0.51678264
105	0x3e33184c	0.17489737
106	0x3dafa408	0.08576208
107	0x3ecd133d	0.4005374
108	0x3e29af4e	0.1657078
109	0x3ef06059	0.46948507
110	0x3e674072	0.22583178
111	0x3e5d4678	0.21608913
112	0x3e3cc82c	0.18435735
113	0x3e499e66	0.1968933
114	0x3e9b98d5	0.3039004
115	0x3ebbd4a9	0.36685684
116	0x3f0ffcde	0.5624522
117	0x3f26d47f	0.65167993
118	0x3f1922db	0.5981881
119	0x3e1b90d0	0.1519196
120	0x3e806a27	0.25080988
121	0x3e7a56a2	0.2444711
122	0x3f299bbe	0.6625327
123	0x3e86a84f	0.26300284
124	0x3ebe9768	0.3722489
125	0x3f2b4f7a	0.66918147
126	0x3eedc958	0.46442676
127	0x3ef13cbb	0.47116646

arith.constant7 f4 [128]
0	0xbe929f6f	-0.28637263
1	0xbe80d484	-0.25162137
2	0xbec9469e	-0.3931169
3	0xbe8e0d7c	-0.27744663
4	0xbeb9de3e	-0.3630237
5	0xbe9705af	-0.29496524
6	0xbe92cb72	-0.2867084
7	0xbea10394	-0.31448042
8	0xbe991d37	-0.29905102
9	0xbec4706b	-0.38367018
10	0xbe7695d7	-0.24080597
11	0xbeb7b9ab	-0.3588384
12	0xbed72ce7	-0.42026445
13	0xbeb5a2fc	-0.3547591
14	0xbecd0193	-0.40040264
15	0xbe935247	-0.2877371
16	0xbeb87040	-0.3602314
17	0xbeb13963	-0.34614095
18	0xbe6aff08	-0.22948849
19	0xbe90de33	-0.28294525
20	0xbef69544	-0.48160756
21	0xbec41b65	-0.3830215
22	0xbe906998	-0.28205562
23	0xbebeba9a	-0.3725174
24	0xbeb03776	-0.34417313
25	0xbea4b922	-0.32172495
26	0xbebf2822	-0.37335306
27	0xbee402fe	-0.44533533
28	0xbeeecc83	-0.46640405
29	0xbec123e7	-0.37722704
30	0xbeacba15	-0.3373572
31	0xbebc0eb1	-0.3672996
32	0xbec482c2	-0.3838101
33	0xbebd6ed0	-0.36998606
34	0xbec5efb5	-0.38659444
35	0xbecb07a3	-0.39654264
36	0xbe979447	-0.29605314
37	0xbed759df	-0.42060754
38	0xbed29fb3	-0.41137466
39	0xbead8243	-0.33888444
40	0xbebec7cd	-0.3726181
41	0xbef6392a	-0.48090488
42	0xbe86c3ef	-0.2632136
43	0xbed8d43a	-0.42349416
44	0xbea26d71	-0.31724122
45	0xbeb319bc	-0.3498057
46	0xbeac27a4	-0.33623993
47	0xbed041f1	-0.4067531
48	0xbe9cd4a3	-0.3063098
49	0xbeb3b06f	-0.35095546
50	0xbeb0c199	-0.34522703
51	0xbe9d84f5	-0.307655
52	0xbe63edbe	-0.2225866
53	0xbec91c4c	-0.392794
54	0xbee18a87	-0.44051
55	0xbeae0371	-0.33987
56	0xbe8d1a20	-0.27558994
57	0xbeb5d82c	-0.3551649
58	0xbe9278ce	-0.28607792
59	0xbecbc4cb	-0.3979858
60	0xbf044c60	-0.5167904
61	0xbebcf5f1	-0.36906388
62	0xbeb1a242	-0.34694105
63	0xbf0b1a30	-0.54336834
64	0xbea7a3dc	-0.32742202
65	0xbf08d53b	-0.53450364
66	0xbec6759e	-0.3876161
67	0xbedccdff	-0.43125913
68	0xbec9665a	-0.393359
69	0xbeddbdcf	-0.43308875
70	0xbede3ead	-0.43407193
71	0xbe996496	-0.29959553
72	0xbebd8cbf	-0.37021443
73	0xbeae6f2a	-0.34069186
74	0xbeaa1e4b	-0.33226237
75	0xbeb23e48	-0.34813142
76	0xbed5ff10	-0.4179616
77	0xbe9ea3d1	-0.30984357
78	0xbeb40b4e	-0.35164875
79	0xbe861e43	-0.26194963
80	0xbeb354eb	-0.35025725
81	0xbef77004	-0.4832765
82	0xbeade76c	-0.33965623
83	0xbea75310	-0.3268056
84	0xbea590c5	-0.32337013
85	0xbeb3750b	-0.35050234
86	0xbed6e98f	-0.41975066
87	0xbedb9e0a	-0.42894012
88	0xbead414c	-0.3383888
89	0xbea43384	-0.32070553
90	0xbec6bb99	-0.38815
91	0xbea83c9c	-0.3285874
92	0xbf05a264	-0.52200913
93	0xbeddb8f0	-0.4330516
94	0xbebc5107	-0.3678057
95	0xbe99048f	-0.2988629
96	0xbea5e8ad	-0.3240408
97	0xbec4f00f	-0.384644
98	0xbebe5c9c	-0.3718003
99	0xbecba71a	-0.39775926
100	0xbe8a3d8a	-0.27000076
101	0xbe93417a	-0.28760892
102	0xbebccd40	-0.36875343
103	0xbeba0f8d	-0.3633999
104	0xbed8d9f0	-0.42353773
105	0xbea9fab8	-0.33199096
106	0xbea84967	-0.32868502
107	0xbe4e5d52	-0.20152786
108	0xbeb461d8	-0.352309
109	0xbe677604	-0.22603613
110	0xbebd24c2	-0.36942106
111	0xbe5ccd2e	-0.21562645
112	0xbea94f19	-0.3306816
113	0xbe9eeded	-0.31040898
114	0xbeaa0ff9	-0.3321531
115	0xbeb85e37	-0.3600938
116	0xbee0b4c4	-0.43887913
117	0xbe9c6b0d	-0.30550423
118	0xbec8e70f	-0.39238784
119	0xbe976e8c	-0.29576528
120	0xbe9b860b	-0.30375704
121	0xbebb2654	-0.3655268
122	0xbeb294df	-0.34879205
123	0xbebc2832	-0.36749417
124	0xbeaa589a	-0.33270723
125	0xbe6b21d4	-0.22962123
126	0xbed44cca	-0.41464835
127	0xbeb7b70e	-0.35881847

arith.constant8 f4 [64]
0	0x3f43bb4e	0.7645768
1	0x3ee84a0d	0.45368996
2	0xbbd1b900	-0.0064002275
3	0x3e3129f4	0.1730116
4	0xbf732df6	-0.94992006
5	0xbee44048	-0.44580293
6	0xbf9da6f5	-1.2316576
7	0x3de87838	0.11351055
8	0xbeba2086	-0.36352938
9	0xbf2ac537	-0.66707176
10	0x3eca4ddd	0.3951253
11	0xbed0a7ec	-0.40753114
12	0x3f57c436	0.8428377
13	0x3d86d600	0.06583786
14	0x40041fd1	2.064442
15	0xc00a6a80	-2.1627502
16	0x3f1e2476	0.61774385
17	0x3ee85888	0.45380044
18	0xbe837ed6	-0.25682706
19	0x3ffe2768	1.9855776
20	0xbf69959f	-0.9124393
21	0x3fb501d1	1.4141179
22	0x3f76c90d	0.9640053
23	0x3f40c253	0.75296515
24	0xbdbbb7a6	-0.091658875
25	0xbec227bc	-0.3792094
26	0xbf507801	-0.8143311
27	0xbf06b4a1	-0.5261937
28	0x3f506b58	0.81413794
29	0x3f9b5990	1.2136707
30	0x4001367e	2.018951
31	0xbfc32ea7	-1.5248612
32	0x3f4c75a4	0.79867005
33	0x3f4f71e1	0.8103314
34	0x3f342fbd	0.7038534
35	0x3fadbf9a	1.3574097
36	0x3e8b33b1	0.27187875
37	0x3f621b96	0.8832334
38	0x3f90d0b6	1.1313694
39	0xbe4607a2	-0.19338849
40	0xbecda6aa	-0.40166217
41	0xbed92789	-0.42412975
42	0x3f20d703	0.6282808
43	0xbe688b5c	-0.22709411
44	0x3ecb57f2	0.39715534
45	0xbd81e9e8	-0.06343442
46	0xbbe9a920	-0.007130757
47	0xbe6d4f90	-0.23174882
48	0x3fb1fba6	1.3904922
49	0xbf85e6fb	-1.0461115
50	0x3f0f45ec	0.5596607
51	0xbf907441	-1.1285478
52	0x3e6637b0	0.2248218
53	0xbfc29755	-1.5202433
54	0x3eac5d47	0.33664915
55	0x3fed14a8	1.8521929
56	0x3f4ac799	0.7921081
57	0x3fa959ea	1.3230565
58	0xbfd9ad53	-1.7006019
59	0xbfdcc6a7	-1.7248124
60	0x3eb41e1c	0.35179222
61	0x4006d485	2.1067212
62	0x3ff29127	1.8950547
63	0x3fa2071d	1.2658421

arith.constant9 f4 [64]
0	0xbeb27f4f	-0.34862754
1	0x3efa7a37	0.48921368
2	0xbf2433f1	-0.64141756
3	0xbf832c5f	-1.0247916
4	0xbf906183	-1.1279758
5	0xbeda2190	-0.4260373
6	0xbe85b7c3	-0.26116762
7	0xbf255ed6	-0.64597833
8	0x3e9f2354	0.3108164
9	0x3d6983e0	0.05701053
10	0x3ebe5049	0.37170628
11	0xbe935ccb	-0.28781733
12	0x3e3fc789	0.1872846
13	0xbfd3a123	-1.653355
14	0x3e3d9a62	0.18515924
15	0xbf8bac2f	-1.0911921
16	0xbede1e12	-0.43382317
17	0xbf03e34b	-0.51518697
18	0xbf3f3361	-0.74687773
19	0x3e9f7482	0.31143576
20	0xbf9d81e1	-1.2305261
21	0xbedf430c	-0.4360584
22	0xbf27fea4	-0.65622926
23	0xbef28c9f	-0.4737291
24	0xbf0c35ca	-0.54769576
25	0xbd0ea914	-0.034829214
26	0xbeebfd7b	-0.46091828
27	0xbe3fb50a	-0.18721405
28	0xbf3655b0	-0.712245
29	0x3f528ab7	0.8224291
30	0xbf00fbfc	-0.503845
31	0xbf0b7f5c	-0.5449121
32	0xbdefbaff	-0.117055885
33	0x3ea5ae4a	0.32359535
34	0xbc43fb00	-0.0119616985
35	0x3eeca01f	0.46215913
36	0xbdf13dea	-0.11779387
37	0xbebf7d4a	-0.37400275
38	0x3da119e8	0.07866269
39	0xbf0028fc	-0.5006254
40	0xbe226d36	-0.15861973
41	0xbed88b7e	-0.42293924
42	0x3e33cb0c	0.17557925
43	0xbf2d2dd9	-0.6764808
44	0xbec9e26d	-0.39430562
45	0xbf9428cd	-1.1574951
46	0x3e9b6867	0.3035309
47	0x3db9234c	0.090399355
48	0xbf3820a4	-0.71924806
49	0xbe4af338	-0.19819343
50	0x3dc771c8	0.09738499
51	0xbf671cf9	-0.90278584
52	0xbecbf116	-0.3983237
53	0x3e84aa8d	0.2591137
54	0xbf3d8bae	-0.7404126
55	0xbfad7f8e	-1.3554552
56	0xbf4619a3	-0.7738287
57	0x3eaef14a	0.34168464
58	0xbef32926	-0.4749233
59	0x3e1b0ee0	0.15142393
60	0xbec906fa	-0.39263135
61	0x3e34962a	0.17635408
62	0xbf0cae6e	-0.5495366
63	0x3f56cd52	0.83907044

arith.constant10 f4 [32]
0	0x3f67141e	0.9026507
1	0x3ff34fb4	1.9008698
2	0x3bebd440	0.007196933
3	0x3f9f269a	1.2433655
4	0x3eb614e0	0.355628
5	0x3e1c3a12	0.15256527
6	0x3f2dfd40	0.67964554
7	0xbea8a25c	-0.3293637
8	0x3f71b7ef	0.94421285
9	0xbf73d767	-0.9525055
10	0xbf0c8c13	-0.54901236
11	0xc02db768	-2.7143192
12	0x3f5fbebc	0.8740041
13	0x3f6f7b1a	0.93547213
14	0xbfe5bc54	-1.7948098
15	0xbf87ed58	-1.0619307
16	0x3e4bb7ec	0.1989438
17	0x3f6900a2	0.9101659
18	0x3f07fdca	0.53121626
19	0xbe79c2cf	-0.2439072
20	0xbf145b5e	-0.57951915
21	0xbfd776cb	-1.6833128
22	0xbe723b07	-0.2365533
23	0xbf58653e	-0.84529483
24	0xbf57a45a	-0.84235156
25	0xbf8818a1	-1.0632516
26	0x3f138fa9	0.57641083
27	0xbf2a8f88	-0.6662526
28	0x3d939642	0.07206394
29	0xbea1ade1	-0.31577972
30	0x3eefe42a	0.46853763
31	0x40563e50	3.3475533

arith.constant11 f4 [32]
0	0x3e2e30a0	0.17010736
1	0xbea987df	-0.33111474
2	0x3d9acc04	0.07558444
3	0xbe355a2d	-0.1771018
4	0xbf22d72e	-0.6360959
5	0x3e6fe9cc	0.2342903
6	0xbd952044	-0.07281545
7	0xbe86e128	-0.26343656
8	0xbf05bbe2	-0.5223981
9	0xbe87da88	-0.26533914
10	0x3ebe857a	0.3721121
11	0xbf3a051c	-0.72664046
12	0x3e4d929f	0.20075463
13	0x3cd8a6c0	0.0264467
14	0xbf2a594f	-0.66542524
15	0xbeb08a23	-0.3448039
16	0xbf73e63e	-0.95273197
17	0xbf2209a6	-0.6329597
18	0x3e80d918	0.2516563
19	0x3e65902c	0.22418278
20	0x3e3744ec	0.17897385
21	0x3e05c1b6	0.13062176
22	0xbe56fa36	-0.20993885
23	0x3de3b9b0	0.111194015
24	0x3eeda030	0.46411276
25	0x3f26956f	0.6507177
26	0xbe101164	-0.14069134
27	0xbdf3032a	-0.11865838
28	0x3eaf0790	0.34185457
29	0x3e7aac7a	0.24479857
30	0xbfab5b3c	-1.3387218
31	0x3c568ae0	0.013094634

arith.constant12 f4 [16]
0	0xbf55f5da	-0.83578265
1	0xbf8d24fb	-1.102691
2	0xbe11df87	-0.14245425
3	0xbef6aeb8	-0.48180175
4	0x3f16d9ba	0.58925974
5	0xbe07169c	-0.13192219
6	0x3e623808	0.22091687
7	0x3e4130e8	0.18866313
8	0xbf917447	-1.136361
9	0xbf1d03ea	-0.613341
10	0x3e84ef87	0.25963995
11	0x3f390570	0.7227392
12	0xbeefa7d3	-0.46807727
13	0xbe9238e2	-0.28559023
14	0x3f1d2b31	0.6139403
15	0x3da75c4c	0.08171901

arith.constant13 f4 [16]
0	0xbf092b82	-0.5358201
1	0x3cd73684	0.026271112
2	0x3e1e980e	0.15487692
3	0xbfdc9640	-1.7233353
4	0xbf55e293	-0.8354885
5	0x3f7243fc	0.94634986
6	0x3f8e8873	1.1135391
7	0xbfc397d3	-1.5280708
8	0xbfadfad2	-1.3592169
9	0x40262f50	2.5966377
10	0x3e678722	0.22610143
11	0x3ef6c4a0	0.48196888
12	0xbf81e21b	-1.0147127
13	0xbfd7a478	-1.6847067
14	0x3ebe9de4	0.37229836
15	0xbf4d8151	-0.80275446

arith.constant14 f4 [7, 3, 3, 128]
0	0xbe12fcf1	-0.14354302
1	0x3ecb9551	0.39762357
2	0x3db7ec8f	0.08980667
3	0x3e4dd4d5	0.2010072
4	0x3dab247c	0.08356568
5	0x3e6217f3	0.22079448
6	0xbe5ee7e9	-0.21768154
7	0xbeb20c56	-0.34775037
8	0xbb981123	-0.0046407147
9	0x3ce75e7b	0.028243294
10	0x3db023bd	0.086005665
11	0xbe8ecfd8	-0.27892947
12	0x3e81cc43	0.25351152
13	0xbd5351b1	-0.05159158
14	0xbe1848a5	-0.14871462
15	0x3e23fda3	0.16014723
16	0xbda5fa10	-0.08104336
17	0xbd9e6c77	-0.07735532
18	0xbe4fa4b3	-0.20277672
19	0x3d05a829	0.032631073
20	0xbcfd2b9d	-0.030904585
21	0x3e64fa9b	0.22361223
22	0xbd39b6e6	-0.04534044
23	0xbe4dbd47	-0.20091735
24	0x3ef9f0f2	0.4881664
25	0xbb07c1f9	-0.0020714982
26	0xbd979f07	-0.07403379
27	0xbe8fc177	-0.2807729
28	0xbd80e40e	-0.06293498
29	0xbebadf1c	-0.36498344
30	0x3efbf926	0.49213523
31	0xbe5e88b1	-0.21731831
32	0x3e7317ea	0.23739591
33	0x3edc7307	0.4305651
34	0xbd804173	-0.062624834
35	0xbded01f4	-0.11572638
36	0x3d65d1e1	0.05610836
37	0xbd91114e	-0.07083379
38	0x3dcdd81c	0.10050985
39	0xbd91e768	-0.07124215
40	0xbef5af2f	-0.47985217
41	0x3b80e6be	0.0039337566
42	0xbdf4c01f	-0.11950707
43	0x3d0c5f49	0.03427056
44	0xbe01092f	-0.1260116
45	0x3ec56263	0.38551626
46	0x3e82ab87	0.2552149
47	0x3f0f482b	0.55969495
48	0xbd47921d	-0.04872333
49	0x3d4f567f	0.0506196
50	0x3dc9e46f	0.098580234
51	0xbc5c319a	-0.01343956
52	0x3d73e0c6	0.059540533
53	0x3e6e3687	0.23262988
54	0x3dc1e982	0.09468366
55	0xbd29de68	-0.04147187
56	0x3e2c31b8	0.16815841
57	0xbe0b6678	-0.13613307
58	0x3c83ce15	0.016089479
59	0x3ea2841b	0.31741413
60	0x3e695d50	0.22789502
61	0x3ef391f8	0.47572303
62	0xbc12137f	-0.008915781
63	0xbe6cd898	-0.23129499
64	0x3e4b4898	0.19851911
65	0xbea80926	-0.3281948
66	0x3eae4925	0.3404018
67	0x3d5702b1	0.0524928
68	0x3e164fbf	0.14678858
69	0xbe4a4a4c	-0.19754905
70	0xbe65c404	-0.22438055
71	0x3db949a8	0.09047252
72	0xbe24fd01	-0.16112138
73	0xbe46e962	-0.19424966
74	0xbe9abf88	-0.30224252
75	0xbd8c067e	-0.06837176
76	0x3d3496aa	0.044088997
77	0x3bfe9bee	0.007770053
78	0xbdf3ffda	-0.11914034
79	0x3e542022	0.20715383
80	0x3e40ba57	0.18821083
81	0xbe045eca	-0.12926784
82	0x3e8cf6da	0.27532083
83	0xbc28c1a8	-0.0103000775
84	0x3e816ac1	0.2527676
85	0x3b2daaf3	0.0026499599
86	0xbdeb14fa	-0.1147861
87	0x3d0172e4	0.03160371
88	0xbb93bca1	-0.0045085703
89	0x3e84ddb7	0.25950405
90	0xbdfc40f7	-0.123170786
91	0xbdc3ef65	-0.09567145
92	0x3e838d7f	0.2569389
93	0x3d3d69c8	0.04624346
94	0xbd99a59a	-0.07502289
95	0xbcc5becb	-0.024138829
96	0x3e5645ab	0.20925014
97	0x3ecc64b8	0.39920592
98	0x3d818187	0.063235335
99	0x3e5ea1e2	0.21741441
100	0x3ecb5e3c	0.39720333
101	0xbed1b179	-0.40955713
102	0x3d093b67	0.033503916
103	0xbe7baf24	-0.2457853
104	0xbdb7e75c	-0.08979675
105	0xbdc3f187	-0.09567552
106	0x3d2dd77f	0.04244184
107	0x3bf673f4	0.007521147
108	0xbde48244	-0.11157659
109	0x3e812a70	0.2522769
110	0x3e7e03bc	0.24806112
111	0xbd3a251c	-0.045445547
112	0x3e4512a0	0.19245386
113	0x3e5b040a	0.2138826
114	0xbec9ff1f	-0.39452454
115	0xbeaa338a	-0.33242446
116	0xbc71176f	-0.01471506
117	0xbe440047	-0.19140731
118	0xbe3c3dd0	-0.18382955
119	0x3e49e347	0.19715606
120	0xbef92101	-0.48657992
121	0xbe5c8bbb	-0.21537678
122	0xbe5711ea	-0.21002927
123	0x3bd641d9	0.0065386114
124	0xbe7b60f2	-0.245487
125	0x3e624fa5	0.22100694
126	0x3dcc6f25	0.09982137
127	0xbdb1fccf	-0.086907975
128	0xbb041a88	-0.0020157415
129	0x3eabb1c6	0.33534068
130	0x3e074b39	0.13212289
131	0x3d1fd44e	0.03902083
132	0xbd671b92	-0.056422777
133	0xbd2afdaf	-0.041745838
134	0xbe88f576	-0.26749772
135	0xbcd28785	-0.025699386
136	0xbdbb5a0f	-0.09148037
137	0xbd444734	-0.047919467
138	0x3e6bb995	0.23020013
139	0xbe2edca5	-0.17076357
140	0x3e5357d1	0.20638968
141	0xbe46bf51	-0.19408919
142	0xbe0a0c82	-0.13481334
143	0x3e2d198a	0.16904274
144	0xbe83615a	-0.2566021
145	0x3d6cce08	0.057813674
146	0xbe004ae8	-0.12528574
147	0xbdf5c6e0	-0.12000823
148	0x3e16507b	0.14679138
149	0x3d3b034f	0.045657452
150	0xbdc598f7	-0.09648316
151	0xbdf4eff3	-0.11959829
152	0x3e755e6e	0.23961803
153	0x3dab7745	0.08372358
154	0xbcf0ce5d	-0.029395277
155	0x3cb095f7	0.021555884
156	0xbdb3ab50	-0.0877291
157	0x3d7cd680	0.061728
158	0x3e975c70	0.29562712
159	0xbd6dc62c	-0.05805032
160	0xbce7b3d8	-0.028283998
161	0x3e244215	0.16040833
162	0xbc30458c	-0.010758769
163	0xbe174ca9	-0.14775337
164	0x3c93f9ea	0.018063504
165	0xbdbfe1ff	-0.09369277
166	0x3cc0694c	0.02348771
167	0xbdbd2e76	-0.09237377
168	0xbec177fd	-0.37786856
169	0xbe5b8a27	-0.2143942
170	0xbd9a1111	-0.075227864
171	0x3d6d3576	0.057912312
172	0xbc312cec	-0.010813933
173	0x3cd76eeb	0.026298007
174	0x3d759d7f	0.059964653
175	0x3e3bef9a	0.1835312
176	0xbd669c84	-0.05630161
177	0x3e3939b5	0.1808842
178	0x3da0ec58	0.07857579
179	0xbe27cc71	-0.16386582
180	0xbd63e0dc	-0.055634364
181	0xbad076a3	-0.0015904497
182	0xbbb7f1c6	-0.0056135384
183	0xbd310c6f	-0.04322475
184	0x3e1d6f05	0.15374382
185	0x3e1e45cd	0.15456314
186	0xbe293fc9	-0.16528238
187	0xbdd3fa96	-0.1035053
188	0x3ec12fa4	0.3773166
189	0x3ee50422	0.44729716
190	0x3de79df5	0.11309425
191	0xbe3867f3	-0.18008403
192	0x3e1d4110	0.1535685
193	0xbe0fa8bf	-0.14029215
194	0x3d4ed582	0.050496586
195	0xbd18d9a5	-0.037316937
196	0x3c0a02e1	0.008423538
197	0xbe9d0aec	-0.30672395
198	0xbb6822a9	-0.003542105
199	0xbcb588c6	-0.022159945
200	0xbe78973b	-0.2427644
201	0x3d88b94e	0.06675969
202	0xbe903348	-0.28164124
203	0x3e15e33e	0.14637467
204	0x3e0a9395	0.1353286
205	0xbd2c2484	-0.04202701
206	0xbd9d3bad	-0.07677398
207	0x3de2d045	0.110748805
208	0x3e89f831	0.26947168
209	0x3d645885	0.05574848
210	0x3d59866f	0.05310672
211	0xbd0da456	-0.03458055
212	0x3d317a6c	0.04332964
213	0xbe6e1ce1	-0.23253204
214	0x3e1702eb	0.14747207
215	0x3b66a670	0.003519442
216	0x3bb15e45	0.005412849
217	0xbbfc595d	-0.0077010826
218	0xbe15be39	-0.14623345
219	0x3d10669b	0.035254102
220	0xbd1faab0	-0.03898114
221	0x3e0d91c0	0.1382513
222	0x3da77049	0.081757136
223	0x3d6cdf33	0.057830047
224	0x3e365f27	0.17809735
225	0x3e1a8d58	0.15092981
226	0xbe0a2859	-0.13491954
227	0xbda7c1b4	-0.08191243
228	0x3ea958a5	0.33075443
229	0x3dd16eb9	0.10226197
230	0xbeb7a66b	-0.35869154
231	0xbeac22f8	-0.3362043
232	0xbe1391de	-0.14411113
233	0x3dbc7236	0.092014715
234	0xbdfaf770	-0.12254226
235	0x3e04897d	0.12943073
236	0xbe2a1add	-0.1661181
237	0x3e754098	0.23950422
238	0xbe3b35b1	-0.182822
239	0x3d4cfd6b	0.050046366
240	0x3e232c84	0.1593495
241	0x3e05f18b	0.13080423
242	0xbe1616a2	-0.14657071
243	0xbeba3fd4	-0.36376822
244	0x3ddf528b	0.10904416
245	0xbd94ca4d	-0.07265148
246	0xbe310a28	-0.1728903
247	0x3e0ef098	0.13958967
248	0xbe321d60	-0.17394018
249	0xbeb44255	-0.35206857
250	0xbd125063	-0.035721194
251	0xbdbd8303	-0.09253504
252	0xbe4d1cdc	-0.2003054
253	0xbe4391e6	-0.19098625
254	0x3df12f8e	0.117766485
255	0xbd8b4512	-0.068002835

arith.constant15 f4 [128, 1, 1, 128]
0	0xbe8ac830	-0.27105856
1	0xbdcdd24d	-0.10049877
2	0x3da7897d	0.08180521
3	0xbe362e1e	-0.1779103
4	0xbc81e39f	-0.015855609
5	0xbdb679b5	-0.089099325
6	0x3e5ac3de	0.2136378
7	0x3dcf5b75	0.10124866
8	0xbd24c2e8	-0.04022494
9	0x3e0f4bfd	0.13993831
10	0xbd35a0ba	-0.044342734
11	0x3deffcb6	0.11718123
12	0xbe94e90c	-0.2908405
13	0x3e2f9d9e	0.1714997
14	0xbe5c4d90	-0.21513963
15	0xbdf8ce3a	-0.121487096
16	0xbd527b27	-0.05138698
17	0xbd0d0dc8	-0.03443697
18	0xbdc333ae	-0.095313415
19	0x3d9b4e3c	0.075832814
20	0x3cdec085	0.02719141
21	0xbd81e57c	-0.06342599
22	0x3e4636d5	0.19356854
23	0x3d582d37	0.052777495
24	0x3b819cdc	0.0039554667
25	0xbd1ce99e	-0.038308732
26	0xbd17ff17	-0.037108507
27	0xbe178a49	-0.14798845
28	0x3d75659d	0.05991136
29	0xbd013c6a	-0.031551756
30	0xbe0c98e2	-0.13730195
31	0xbafa331b	-0.0019088717
32	0x3d8037e4	0.0626066
33	0x3d3c63b5	0.045993526
34	0x3b91e4be	0.004452317
35	0x3d2e93c5	0.042621393
36	0x3d153873	0.036430787
37	0xbd3bf7de	-0.04589068
38	0x3e2b6a07	0.16739665
39	0xbe0a08ac	-0.1347987
40	0xbdde7f40	-0.10864115
41	0x3c0fa3dc	0.008767094
42	0xbe3b8afb	-0.18314736
43	0x3d828aed	0.06374154
44	0xbde74164	-0.11291769
45	0xbcf354b1	-0.02970347
46	0xbd8d23f1	-0.06891621
47	0x3d9fa11d	0.07794402
48	0xbcd106e2	-0.025515977
49	0x3e40fae4	0.18845707
50	0xbe514b96	-0.2043899
51	0xbe05ceb9	-0.1306714
52	0x3e326806	0.17422494
53	0xbc562811	-0.013071076
54	0xbde020e2	-0.10943772
55	0xbd382dd7	-0.04496559
56	0x3d818b14	0.06325355
57	0xbbbb1c3d	-0.0057101534
58	0x3b874852	0.0041284943
59	0xb764c879	-1.3636535e-05
60	0xbda59a35	-0.08086053
61	0xbe03512e	-0.12823936
62	0x3d10dbb2	0.035365768
63	0xbceedfe9	-0.029159503
64	0xbe1859de	-0.14878032
65	0x3c7d0d3b	0.015445049
66	0xbd52547e	-0.05135011
67	0xbd98187f	-0.07426547
68	0xbd321c9d	-0.04348432
69	0x3c1eea46	0.00969941
70	0x3d204149	0.03912476
71	0x3d8c5f05	0.06854061
72	0x3e21e955	0.15811665
73	0x3a9df623	0.0012051504
74	0xbd6400f8	-0.055664986
75	0x3e5d99b6	0.21640667
76	0x3e8038d0	0.25043344
77	0xbe3204ac	-0.17384595
78	0x3d9eb286	0.077488944
79	0xbe147427	-0.14497434
80	0xbd169cf3	-0.036770772
81	0xbe2e4619	-0.17018928
82	0xbdceb974	-0.10093966
83	0xbce7babe	-0.028287288
84	0x3e08aa15	0.13346131
85	0x3d6b5945	0.05745818
86	0x3c42db2f	0.011893078
87	0xbd81f185	-0.06344894
88	0xbd10be95	-0.035338003
89	0xbdb54743	-0.08851483
90	0x3d1d882b	0.038459938
91	0xbd9f10d3	-0.07766881
92	0x3deed694	0.11662021
93	0x3dcc20a6	0.09967165
94	0x3e7f9438	0.24958885
95	0xbd728458	-0.059208244
96	0x3d0bc4f3	0.034123372
97	0x3e293ced	0.16527148
98	0x3dc92789	0.09821994
99	0x3e5cd416	0.2156528
100	0x3e037feb	0.12841766
101	0x3e3f910f	0.18707679
102	0xbd960ab3	-0.073262595
103	0x3d18c05f	0.037292834
104	0xbe82b023	-0.25525007
105	0x3e62b7c6	0.22140417
106	0xbdb5afcf	-0.088714235
107	0x3d264a8a	0.04059843
108	0xbdcda506	-0.10041241
109	0xbccefc26	-0.025266718
110	0xbb0de184	-0.002164931
111	0x3e6a8c77	0.22905146
112	0x3d488ec6	0.048964284
113	0xbdbccc86	-0.09218697
114	0xbd886d43	-0.06661465
115	0xbe36b126	-0.17841014
116	0x3e044185	0.12915619
117	0xbe18dcfd	-0.1492805
118	0x3b560c27	0.0032661052
119	0xbe1e6386	-0.15467653
120	0x3c4b73a1	0.012417705
121	0x3e3f9474	0.18708974
122	0x3e3ae116	0.18249926
123	0x3dceb282	0.100926414
124	0x3d8c9ef7	0.06866258
125	0x3e682609	0.2267076
126	0xbd9d117c	-0.076693505
127	0xbd1ca1ea	-0.03824035
128	0xbdefabd9	-0.11702699
129	0xbc2d8053	-0.010589677
130	0x3e647034	0.22308427
131	0x3e2bf852	0.16793945
132	0xbcc682ce	-0.024232294
133	0xbdb7d500	-0.089761734
134	0x3e43ea29	0.19132294
135	0x3b3996fe	0.0028318758
136	0x3c0d787b	0.008634682
137	0xbd029e2a	-0.03188912
138	0x3e944e9b	0.2896622
139	0xbe591601	-0.211998
140	0xbd0fd0a1	-0.035111073
141	0x3e5f67d2	0.21816948
142	0xbc743527	-0.014905251
143	0xbe43d862	-0.19125512
144	0xbe275e28	-0.16344512
145	0x3e667bfe	0.22508237
146	0xbd91cda6	-0.071193025
147	0xbdb9441a	-0.090461925
148	0xbc6003ce	-0.013672782
149	0xbd6fbd28	-0.058530003
150	0xbe1bcd07	-0.1521493
151	0x3e180f54	0.14849597
152	0xb98a6fb9	-0.0002640465
153	0xbddb51b3	-0.10708942
154	0x3a8e5a1b	0.0010860594
155	0xbd8cdfb6	-0.06878607
156	0xbe3460c5	-0.1761504
157	0x3ea00f67	0.3126175
158	0x3d3a1ef5	0.04543968
159	0x3c5b438d	0.013382805
160	0x3d56c10a	0.05243019
161	0xbe1ee300	-0.15516281
162	0xbced5a16	-0.02897362
163	0x3e047606	0.12935647
164	0xbe197990	-0.14987779
165	0x3e408b55	0.18803151
166	0x3e694d51	0.227834
167	0x3d7165f0	0.058935106
168	0xbdbd8639	-0.092541166
169	0xbd93dcdf	-0.07219862
170	0xbd7bf31d	-0.061511148
171	0x3ddbd0e4	0.10733202
172	0xbe0f1fc9	-0.13976969
173	0xbd1bc325	-0.0380279
174	0x3de893be	0.113563046
175	0x3e1e8132	0.15478972
176	0xbd215b2f	-0.0393936
177	0xbd1ab86d	-0.03777354
178	0x3d9473d4	0.07248655
179	0x3e281038	0.16412437
180	0xbac4248e	-0.0014964507
181	0x3e7231a4	0.23651749
182	0x3d4e4266	0.05035629
183	0x3ba2d643	0.0049693896
184	0x3d86f5ac	0.06589827
185	0x3e11c871	0.14236619
186	0xbcffaee9	-0.031211333
187	0xbea99299	-0.33119658
188	0x3d2037b3	0.03911562
189	0xbe03bf26	-0.12865886
190	0xbda0cf11	-0.07851995
191	0xbdda1960	-0.10649371
192	0x3e244fa9	0.16046013
193	0xbd23b20a	-0.039964713
194	0x3d21dc38	0.039516658
195	0x3e1cd9e2	0.1531749
196	0x3e043eaa	0.1291453
197	0xbe75d82b	-0.24008243
198	0x3df981fe	0.12182997
199	0x3db38629	0.087658234
200	0x3cfe1239	0.031014549
201	0x3e696714	0.22793227
202	0x3e14a14f	0.1451466
203	0xbd492bcf	-0.049114045
204	0x3d4f068c	0.050543353
205	0xbd842224	-0.06451824
206	0xbe0e026a	-0.13868108
207	0x3e28dc35	0.16490252
208	0x3cc63c1e	0.024198588
209	0xbe15d439	-0.14631738
210	0x3d8daf75	0.069182314
211	0xbe30559f	-0.17220162
212	0x3e061274	0.13092977
213	0xbd139eb2	-0.036040016
214	0xbc96b62d	-0.018397415
215	0x3ded6146	0.11590819
216	0x3daf13dd	0.085487105
217	0x3c2babda	0.010477984
218	0xbd7a8e55	-0.061170895
219	0x3e146483	0.14491467
220	0x3e4cd8bf	0.20004557
221	0x3e10ed91	0.14153124
222	0xbd8ddc9f	-0.06926846
223	0x3e232a26	0.15934047
224	0x3ddaa6e0	0.1067636
225	0x3e255040	0.16143894
226	0x3d13ff41	0.0361321
227	0x3d118d98	0.035535425
228	0x3d85f83d	0.06541488
229	0x3e3d1d00	0.18468094
230	0xbe0ac1a4	-0.1355043
231	0xbd26a461	-0.040684108
232	0xbcf0b06f	-0.029381005
233	0x3dd01196	0.10159604
234	0xbda04333	-0.07825317
235	0x3d18db61	0.03731859
236	0x3d9c41c6	0.07629733
237	0xbd3b1bfa	-0.045680977
238	0x3ddd4032	0.1080326
239	0xbd29bfba	-0.04144261
240	0x3c18fe91	0.009338037
241	0xbddcf321	-0.10788561
242	0x3dea3c50	0.11437285
243	0x3d02d03f	0.03193688
244	0x3d8ad276	0.067784235
245	0x3d9d2f05	0.07674984
246	0xbe815eb0	-0.25267553
247	0x3d7ec649	0.06220082
248	0xbdc1b39e	-0.094580874
249	0xbd9e27f3	-0.077224635
250	0xbcd590de	-0.026070055
251	0xbdc0abbb	-0.09407755
252	0xbd7fdc7e	-0.062466137
253	0xbd9d1d3c	-0.07671592
254	0x3d93c9cf	0.07216226
255	0xbdb4e092	-0.08831896

arith.constant16 f4 [1, 3, 3, 128]
0	0x3ef8e008	0.48608422
1	0x3d439ef7	0.047759023
2	0xbdb6afc9	-0.08920247
3	0x3da5c412	0.08094038
4	0xbea14962	-0.315013
5	0xbe91f08c	-0.28503835
6	0xbe63b2e8	-0.22236216
7	0xbd90a34f	-0.07062399
8	0xbd16ba99	-0.036799047
9	0xbec64a50	-0.3872857
10	0x3eeb37c6	0.4594099
11	0xbdcad491	-0.09903825
12	0xbec5e7e5	-0.38653484
13	0xbef4b766	-0.47796172
14	0x3ef26047	0.4733908
15	0x3eb3e1da	0.3513325
16	0x3ebbbc8e	0.36667293
17	0x3debe14b	0.115175806
18	0x3ea18347	0.3154547
19	0xbf02306f	-0.50855154
20	0x3f1a50c9	0.6027952
21	0xbe0e2c4e	-0.13884088
22	0x3d11eeb7	0.035628047
23	0x3cd01c25	0.025404045
24	0xbd9c6b50	-0.07637656
25	0x3eb5e9b1	0.35529855
26	0x3ec4397a	0.383251
27	0x3dd7d993	0.10539546
28	0xbe25f281	-0.16205789
29	0x3f1a80e2	0.6035291
30	0xbe240709	-0.16018309
31	0x3e8b84db	0.27249798
32	0xbec0a457	-0.3762538
33	0x3ef9ec7f	0.48813245
34	0x3f077d63	0.529257
35	0x3e4c0255	0.19922765
36	0xbe6c75fb	-0.23091881
37	0x3e5c467f	0.21511267
38	0xbd85ca88	-0.065327704
39	0xbe3b9527	-0.18318616
40	0x3f136f44	0.5759165
41	0xbf2c3b08	-0.67277575
42	0x3ec2f7d8	0.38079715
43	0xbe902fe3	-0.28161535
44	0x3ec5c636	0.38627785
45	0x3eede9b5	0.46467367
46	0x3ef6c7fb	0.48199448
47	0xbdb455ee	-0.08805452
48	0xbe4289d0	-0.18997884
49	0x3eabea9e	0.33577436
50	0xbb333c20	-0.002734907
51	0xbe3a9f71	-0.18224885
52	0xbf021a9b	-0.50821847
53	0x3dc05f5b	0.093931876
54	0xbed25a47	-0.410845
55	0xbdf88596	-0.121348545
56	0x3e418ba9	0.18900932
57	0x3e763bb1	0.24046208
58	0x3ed5f397	0.41787407
59	0xbf1dd6c4	-0.6165583
60	0xbe0b4d41	-0.13603689
61	0x3dcd1fd9	0.1001584
62	0xbe28c4be	-0.16481301
63	0xbc932525	-0.017962048
64	0xbeb09ced	-0.34494725
65	0xbe7d0a38	-0.2471093
66	0xbed24bf4	-0.41073573
67	0x3e95d627	0.29264948
68	0x3ea150f2	0.3150707
69	0x3eecd76d	0.46258107
70	0x3e2ddc0a	0.1697847
71	0xbe7b6fcc	-0.24554366
72	0xbc4be8a9	-0.012445607
73	0xbeb128b6	-0.34601372
74	0xbe7ba9a1	-0.24576427
75	0xbe5e2c09	-0.21696486
76	0xbeeffed2	-0.468741
77	0x3ea12ef9	0.3148115
78	0xbecae531	-0.39627984
79	0xbe9ffbc1	-0.3124676
80	0xbe134a32	-0.14383772
81	0xbe455b09	-0.19273008
82	0x3e8f87d9	0.2803333
83	0x3e9a96f3	0.3019329
84	0xbe7ffda8	-0.24999106
85	0x3d3f510c	0.04670815
86	0x3e184434	0.14869767
87	0x3f0fcc4a	0.56171095
88	0xbe5091d7	-0.20368133
89	0x3d36a2dd	0.044588912
90	0x3da13442	0.078712955
91	0x3ed5de94	0.41771376
92	0xbe5c54f7	-0.21516787
93	0x3e89c1fb	0.26905808
94	0xbee299f7	-0.4425809
95	0xbedfd433	-0.43716583
96	0x3e66ab3c	0.22526258
97	0x3e61fb03	0.2206841
98	0x3c2e22fe	0.01062846
99	0x3e83563e	0.25651735
100	0x3ee9216e	0.45533317
101	0xbe05547b	-0.13020508
102	0xbe561c07	-0.20909129
103	0xbe9f482c	-0.3110975
104	0xbe01ffcd	-0.12695237
105	0x3e94f458	0.2909267
106	0xbc9462ba	-0.018113483
107	0x3d8238c6	0.06358485
108	0xbec21c5d	-0.37912264
109	0x3eeb48be	0.45953935
110	0x3e1247af	0.14285158
111	0xbf0d1382	-0.5510789
112	0x3e6d00f5	0.23144896
113	0x3e928ad2	0.28621536
114	0x3eb393c4	0.35073674
115	0xbe86177e	-0.26189798
116	0x3dba63b6	0.091010496
117	0xbe5b1583	-0.21394925
118	0xbf06fdbb	-0.5273091
119	0x3dddc5dd	0.10828755
120	0x3eb03274	0.34413493
121	0x3e4f0f09	0.20220579
122	0x3eef3a28	0.46724057
123	0x3ea48282	0.3213082
124	0x3dabb9f0	0.08385074
125	0xbe0bd1cb	-0.13654248
126	0x3ede4877	0.4341466
127	0x3d183353	0.03715832
128	0x3cc17a51	0.023617895
129	0xbdc37732	-0.09544219
130	0xbe90218d	-0.28150597
131	0x3f13c1bd	0.57717496
132	0xbe5dea43	-0.21671395
133	0x3c83e653	0.016101038
134	0xbeaa1b5a	-0.33223993
135	0xbe8a399d	-0.2699708
136	0xbebd7ee8	-0.37010884
137	0xbf0e30de	-0.55543315
138	0x3ee8a76a	0.45440227
139	0xbd8ab1d7	-0.067722015
140	0xbebbeb71	-0.36703065
141	0xbecc7c23	-0.3993846
142	0x3f45ba02	0.7723695
143	0x3ed535bb	0.41642556
144	0x3ecc1b80	0.3986473
145	0x3d01be66	0.03167572
146	0x3f0424ac	0.51618457
147	0xbebaa2ca	-0.36452323
148	0x3df2aff3	0.11849966
149	0x3d513455	0.0510753
150	0xbd621751	-0.055198018
151	0x3ea6d1f6	0.32582062
152	0x3ec6a55b	0.3879803
153	0x3e5e9db8	0.21739852
154	0x3ef6a807	0.4817507
155	0x3e5050fe	0.20343396
156	0x3d2855bf	0.0410974
157	0x3e8b8c5c	0.27255523
158	0xbeb0add4	-0.3450762
159	0x3dd1d2a9	0.10245258
160	0xbebe1c57	-0.37130997
161	0x3ec39aaf	0.38203952
162	0x3e92b019	0.28649977
163	0x3e9b3a64	0.30317986
164	0xbe602283	-0.21888165
165	0x3cb72234	0.022355177
166	0xbd117e65	-0.03552093
167	0xbea16c47	-0.31527922
168	0xbdd276f1	-0.102765925
169	0xbee77784	-0.4520837
170	0x3ed7b8ee	0.42133278
171	0x3e3cb4ac	0.18428296
172	0x3e2fc309	0.17164244
173	0xbe1eaaa7	-0.15494786
174	0x3f2a5a15	0.66543704
175	0xbebfed51	-0.37485746
176	0xbf0c1105	-0.5471347
177	0x3ef96a98	0.48714137
178	0x3f0988e1	0.53724486
179	0x3cd9a17e	0.026566263
180	0xbe92fe80	-0.28709793
181	0xbce3cddf	-0.027808128
182	0xbe974a70	-0.2954898
183	0xbdabf4c0	-0.08396292
184	0x3e779f25	0.24181803
185	0x3ee81d8f	0.4533505
186	0x3ed96e54	0.42466986
187	0xbef02904	-0.46906292
188	0x3e2799b8	0.16367233
189	0x3ef33f68	0.47509313
190	0xbecde75e	-0.40215582
191	0x3d662ffa	0.056198098
192	0xbdaf4f38	-0.08560032
193	0xbdaf79ff	-0.08568191
194	0xbf041eb6	-0.5160936
195	0x3dfd9a9c	0.12383005
196	0x3e7ea994	0.24869376
197	0x3edc2915	0.43000093
198	0xbcd96fce	-0.02654257
199	0xbeeb9b4b	-0.46016917
200	0xbef0a13d	-0.46998015
201	0xbe7eae16	-0.24871096
202	0xbe87631a	-0.26442796
203	0xbe36fc12	-0.17869595
204	0xbeef8a08	-0.46784997
205	0x3e8eb0e8	0.27869344
206	0xbef2af9a	-0.47399598
207	0xbc8cb08d	-0.01717403
208	0xbe9d3930	-0.30707693
209	0xbeb77018	-0.35827708
210	0x3e3a3f31	0.18188168
211	0x3ef8e16a	0.48609477
212	0xbe66e6ff	-0.22549056
213	0xbe128b0f	-0.14310859
214	0x3e74f8f6	0.23923096
215	0x3eb54e61	0.3541136
216	0x3d11498a	0.035470523
217	0xbe18a7b8	-0.1490773
218	0xbed0a0bb	-0.40747628
219	0x3eabe6d1	0.33574536
220	0xbed92fc9	-0.4241927
221	0x3e5f9bda	0.21836796
222	0xbf31c5c1	-0.69442374
223	0xbf2d82cd	-0.6777771
224	0x3ecfec88	0.40610147
225	0xbe910aec	-0.28328645
226	0xbf295452	-0.6614429
227	0x3e116cc7	0.14201652
228	0x3ebc236d	0.36745778
229	0xbe8defff	-0.27722165
230	0xbf3b7fc2	-0.7324182
231	0xbeb617d5	-0.35565057
232	0x3ea59989	0.323437
233	0x3e322d45	0.17400081
234	0x3deec84a	0.11659296
235	0x3e8d6227	0.27613947
236	0xbeecc6da	-0.46245462
237	0x3ea8b3cf	0.32949683
238	0x3e85903a	0.260866
239	0xbead9ab9	-0.33907107
240	0x3ec3c50b	0.3823627
241	0x3f32c80b	0.6983649
242	0x3e9219bb	0.28535256
243	0x3d49b091	0.049240652
244	0x3ed5c80d	0.4175419
245	0x3dc26a46	0.09492926
246	0xbec244d4	-0.37943137
247	0x3e04ac41	0.12956335
248	0x3eeb5ee1	0.45970824
249	0x3e58ea99	0.21183242
250	0x3ecf0a5f	0.404376
251	0x3e88e135	0.2673432
252	0x3e3d6098	0.18493879
253	0x3e37e9f0	0.17960334
254	0x3ef6616f	0.4812121
255	0x3de0b6dc	0.10972378

arith.constant17 f4 [128, 1, 1, 64]
0	0x3d45e7c2	0.048316725
1	0xbd513baa	-0.05108229
2	0x3a1da278	0.00060132844
3	0x3d9a1450	0.075234056
4	0xbce9d96b	-0.028546056
5	0xbda8df67	-0.082457356
6	0xbca4d3b1	-0.020120474
7	0x3d424ead	0.047438312
8	0x3d7d1a93	0.06179292
9	0xbc37372e	-0.011182589
10	0x3dab1c1b	0.0835497
11	0xbdde6d43	-0.10860684
12	0x3db5787b	0.088608705
13	0xbd7004f0	-0.05859846
14	0xbd4843e1	-0.04889286
15	0x3db32510	0.087473035
16	0x3d19adb8	0.037519187
17	0xbd6620f6	-0.056183778
18	0xba9deed4	-0.0012049326
19	0xbdf32b27	-0.11873465
20	0xbd63fa83	-0.05565883
21	0xbd80ca19	-0.06288547
22	0xbc3cce30	-0.011523768
23	0xbcfd24bf	-0.030901311
24	0xbd83f270	-0.06442726
25	0x3d021001	0.031753544
26	0x3dc00611	0.09376157
27	0xbbd36a8a	-0.0064519094
28	0xbc4bdbba	-0.012442524
29	0x3e3ba6c0	0.18325329
30	0xbd14b957	-0.036309566
31	0x3da4780e	0.08030711
32	0xbd630619	-0.055425737
33	0x3cf21790	0.029552251
34	0x3cd7b581	0.026331665
35	0x3cbc117c	0.022957556
36	0x3d053a02	0.032526024
37	0x3da8c810	0.08241284
38	0x3c4c665d	0.012475577
39	0x3cd9d377	0.026590092
40	0x3df03e95	0.117306866
41	0x3d99d697	0.07511633
42	0x3d480ddb	0.04884134
43	0xbd2b4330	-0.041812122
44	0xbd10aa5b	-0.035318714
45	0xbd02f95a	-0.03197608
46	0xbd5a3496	-0.053272806
47	0xbd3e0961	-0.046395663
48	0xbd453a98	-0.048151582
49	0x3d591382	0.05299712
50	0x3d14e2fb	0.036349278
51	0xbde82a79	-0.11336226
52	0xbce34f85	-0.027747879
53	0xbd5eae21	-0.05436528
54	0x3d144b95	0.036204893
55	0x3d9a73b5	0.075416006
56	0xbdd5fc91	-0.10448564
57	0x3da7fc40	0.0820241
58	0xba63ff98	-0.0008697449
59	0xbd1040eb	-0.03521816
60	0xbe317b31	-0.1733215
61	0x3d9cad3f	0.076502316
62	0x3d9d5b60	0.07683444
63	0x3cbb1ec6	0.022841822
64	0xbc9c4c49	-0.019079344
65	0xbdedf985	-0.11619858
66	0xbd776c2e	-0.060405903
67	0xbd3ac229	-0.04559532
68	0xbce86029	-0.028366165
69	0xbdc86410	-0.097847104
70	0x3e6641ea	0.22486082
71	0xbda440e4	-0.080201894
72	0x3be0ab74	0.0068563763
73	0x3d0322bb	0.032015543
74	0x3c51a5e3	0.012795898
75	0xbc0d3c07	-0.008620269
76	0xbcc56ec0	-0.024100661
77	0x3dcb78a4	0.0993512
78	0xbc866405	-0.016405115
79	0x3d93b903	0.072130226
80	0xbcc4865c	-0.023989849
81	0x3d0c823b	0.034303885
82	0x3bda6e07	0.0066659483
83	0x3d81ba20	0.06334329
84	0x3c969ca6	0.018385243
85	0x3e04b035	0.12957843
86	0xbdaf5459	-0.0856101
87	0xbd077c1d	-0.033077348
88	0xbd9347e7	-0.07191449
89	0xbcf975b1	-0.030451627
90	0x3bdaf1f1	0.0066816737
91	0x3d365f72	0.044524617
92	0x3da5d3de	0.08097051
93	0xba548cc2	-0.0008108133
94	0x3c3a9d13	0.0113899885
95	0x3c298d08	0.010348566
96	0x3d8c928b	0.06863888
97	0x3c800388	0.015626684
98	0xbd2dc84a	-0.04242734
99	0x3c01cd40	0.007922471
100	0xbd22be5b	-0.03973232
101	0xbdd48711	-0.103773244
102	0x3d5fdb7a	0.05465267
103	0x3cec50b2	0.028847072
104	0x3bfc5b98	0.0077013485
105	0x3e20976e	0.15682766
106	0x3c87dd42	0.016584996
107	0xbde447bb	-0.11146494
108	0xbc628694	-0.013826031
109	0xbd3e2771	-0.046424333
110	0x3bb973dd	0.005659564
111	0xbcbb31eb	-0.022850951
112	0x3d15569e	0.036459558
113	0x3d67a77f	0.05655622
114	0x3cb308f8	0.021854863
115	0x3cb560b0	0.02214083
116	0x3e56ee38	0.2098931
117	0x3d41d586	0.047322772
118	0xbe02a66c	-0.12758797
119	0xbd3d3ff2	-0.04620356
120	0xbe1eccb1	-0.15507771
121	0xbd005d78	-0.03133914
122	0xbe388aad	-0.1802165
123	0x3c49343b	0.012280519
124	0xbcb200b9	-0.02172886
125	0xbd99f4d0	-0.075173974
126	0x3e3190f0	0.17340446
127	0xbcd7dcd2	-0.026350413
128	0xbcad7ccf	-0.021177677
129	0xbd8e2f3c	-0.06942603
130	0x3d509827	0.050926354
131	0xbdc86ed1	-0.097867616
132	0x3dce1fb8	0.100646436
133	0xbc4fa147	-0.012672729
134	0xbd21a662	-0.039465316
135	0x3cb6a6bb	0.0222963
136	0x3cec79ca	0.028866667
137	0x3cb012b5	0.021493295
138	0xbcd913be	-0.026498672
139	0xbd28db06	-0.041224502
140	0xbd1dfaa6	-0.038569115
141	0x3ccef0d4	0.02526132
142	0xbb44db28	-0.0030037854
143	0xba832a56	-0.0010007124
144	0xbcfbe019	-0.030746507
145	0xbd8381a0	-0.064212084
146	0x3da657c3	0.08122208
147	0xbc5d1991	-0.013494865
148	0xbb0ff89a	-0.0021968246
149	0xbd7abc82	-0.06121493
150	0xbbc6dcfa	-0.006068823
151	0xbd9bc11d	-0.07605193
152	0x3ba075bf	0.004896849
153	0xbca77746	-0.020442616
154	0x3cea693f	0.028614638
155	0xbca6fcc4	-0.0203842
156	0x3b8b5c5c	0.0042529535
157	0x3d53ebdc	0.051738605
158	0x3d78d403	0.060749065
159	0x3b3ac720	0.0028500035
160	0x3d01795a	0.03160987
161	0xbc9e18aa	-0.01929887
162	0xbd679c6f	-0.05654567
163	0x3caa5748	0.020793572
164	0x3c069622	0.008214505
165	0x3d108825	0.035286088
166	0x3db5dcf8	0.08880037
167	0xbd4404ed	-0.04785626
168	0xbcbc71ad	-0.023003424
169	0x3d520aff	0.051280018
170	0x3a83c797	0.0010053989
171	0x3c0b8013	0.008514422
172	0xbd652854	-0.055946663
173	0xbd4df565	-0.050282855
174	0xbce2147d	-0.02759766
175	0x3d66b7e5	0.05632772
176	0xbd530ced	-0.051526
177	0x3a8528aa	0.0010159214
178	0xbcc9d0a7	-0.024635626
179	0xbd19b212	-0.037523337
180	0xbdb905d8	-0.09034318
181	0x3d25dd63	0.040494334
182	0xbdc5fc33	-0.09667244
183	0x3d167f0f	0.036742266
184	0x3cc91612	0.024546657
185	0x3df0dfa2	0.117614046
186	0xbcd2bba4	-0.02572424
187	0x3c303936	0.010755828
188	0xbdc1c97a	-0.09462257
189	0xbd01370c	-0.031546637
190	0x398877eb	0.00026029287
191	0xbd2d39f7	-0.042291608
192	0xbd3cf9fa	-0.046136834
193	0xbcf5a944	-0.029987939
194	0x3cf28c05	0.029607782
195	0x3d571b90	0.05251652
196	0xbcd9a7c3	-0.026569253
197	0x3d54ae09	0.051923785
198	0xbd8fed76	-0.07027714
199	0x3d45c232	0.048280902
200	0x3ca15fb9	0.019698964
201	0xbcd27aa5	-0.025693247
202	0x3d9e84bd	0.077401616
203	0x3d0d6da6	0.034528397
204	0xbcf2b251	-0.029626044
205	0xbc946eda	-0.018119264
206	0x3d2d3817	0.04228982
207	0x3ba816b2	0.0051296586
208	0xbdd87f53	-0.1057116
209	0x3c204c78	0.009783857
210	0x3cb4c745	0.022067675
211	0xbd785359	-0.06062636
212	0xbcbc9a49	-0.023022788
213	0xbd39ca0b	-0.0453587
214	0x3a88bfee	0.0010433176
215	0xbc00340e	-0.007824911
216	0xbc5e06a2	-0.013551386
217	0x3b8a14de	0.0042139133
218	0xbddb91d0	-0.10721171
219	0xbd85e260	-0.06537318
220	0xbcfb8b1f	-0.030705987
221	0x3abb98c6	0.0014312498
222	0xbd89dfa8	-0.06732112
223	0x3dab9618	0.083782375
224	0x3d9dbe6e	0.07702337
225	0xbd4d595d	-0.05013405
226	0xbd17cb05	-0.03705885
227	0xbceb87b2	-0.028751228
228	0xbddf152a	-0.108927086
229	0xbda68e97	-0.081326656
230	0xbe30a7f7	-0.17251574
231	0x3df24083	0.11828711
232	0xbcc724be	-0.024309512
233	0x3d023239	0.031786177
234	0x3b0e079c	0.0021672016
235	0x3d275023	0.04084791
236	0x3dcf3d23	0.10119083
237	0xbb80b222	-0.003927485
238	0x3ba59cfd	0.005054115
239	0xbcf7bc3a	-0.03024112
240	0xbc24be9c	-0.01005521
241	0x3d09bcd5	0.03362735
242	0xbc87e199	-0.016587066
243	0xbc874f15	-0.016517201
244	0xbd812926	-0.063066766
245	0xbdeb217f	-0.11480998
246	0x3da79418	0.081825435
247	0x3cff3aaf	0.031155912
248	0xbd28c37f	-0.041202065
249	0x3d890e2c	0.06692156
250	0x3cafef48	0.021476403
251	0x3d24d84e	0.040245347
252	0xbd90aff3	-0.0706481
253	0x3d6c1f4d	0.05764704
254	0xbb65d238	-0.0035067927
255	0x3dacdbec	0.08440384
